99_old/web/model.tflite (tflite, 619328 bytes, 17 tensors)

sequential/dense_2/MatMul f4 [10, 32]
00000000: fb6a 803e 7fbb 8b3e c18b 533d 7dce a33d
00000010: dd90 2fbe 511a 3dbe 4243 d93d 27a4 8a3e
00000020: 5db5 783e c391 663e 6e43 39be 0b4c c6be
00000030: e442 ba3c 94f2 b6be 6fd7 3ebe 6b01 8c3e
00000040: 9bd2 8cbe 8845 10be b574 85be 7bd9 55be
00000050: 903f ab3d 80e6 fe3d 1799 b4bb f5df 8a3e
00000060: 3f75 8ebd 46ef aa3e 5de9 60be 18ca 0dbe
00000070: cbfb a4bd 912a 83bd 8c3d 87bc 05d7 ba3d
00000080: 7a2f 683e 692c 3f3e 34ab 18bd 75da 313e
00000090: f80e b6bc 176b f43d dcb7 95be 9fb8 bbbe
000000a0: bc48 0e3e 26a6 28bd 53aa 01be 35d5 083e
000000b0: 602f a13e a95d 5dbe 82a8 1dbd 8ca2 79be
000000c0: 7f58 d03c 3227 acbd a14b a63e 3748 eabd
000000d0: e144 713e 3837 5ebe dfa6 753e 34d2 5cbe
000000e0: 8a05 83be 9c4a 883e 2e8f 7abe 6c32 c8bd
000000f0: 821c 9e3e 223b 04be 4579 4d3e c2a2 b8bd
00000100: f1a4 adbe 07b1 c6bd aa5d d03e 266e 733e
00000110: 1469 adbe cabd 6bbe 1202 d63d 4752 7abe
00000120: 322f ecbd 440e aabd a34e a8bd 74ec 27be
00000130: 0f2f b6be 2909 5d3e 8119 a83e 0db3 373d
00000140: 9593 a4be 1973 c83e 8aef fc3d ebae 01be
00000150: 77dc c3be dcc9 70bd c7db 9dbe 4192 cabe
00000160: d676 873d 3deb 92be af74 a03e 6239 f63d
00000170: 00da 85be e808 0cbe b3b8 74be 5321 2bbe
00000180: 9d9d 1bbe 8c16 823e 175d bfbd c6fe cfbc
00000190: 87a2 a93d 797d b23e 8fb6 ac3e e929 3ebd
000001a0: 7628 cbbe ec9f a8be 86a4 44be 5f5e 2bbe
000001b0: 28fc 8ebe 3448 e4bc 3992 c13e 29d2 8ebe
000001c0: 0a02 c03e 58cf 843d 9097 34be 870c b83d
000001d0: 0390 903e 49a1 c1be 8163 243c 958f 3a3e
000001e0: 8ca7 a93e 7f46 5f3e 9875 8ebc e640 e33d
000001f0: c430 8d3e cbe7 87be b946 b8be db1a c43c
00000200: 9484 073e a566 a2be b6ac 963e 4581 29be
00000210: f808 4cbe 2bc8 57be f887 93be f55c 50be
00000220: ccba 07bd 0ead cc3e 5c23 b1be 6054 793e
00000230: 44d5 3f3c d971 77be 9f62 643e 7d5b 8d3d
00000240: 56cd 923d 5647 84bd 7eb2 8bbe dba4 383b
00000250: 9ca2 c53d 7279 623e 7aff c83e 08c9 68be
00000260: 0429 0fbd c111 94bd 9c97 263e 2220 9f3d
00000270: 54a9 903e 1c0b b6be 786f f23d 0ff6 bcbd
00000280: 5b0d c33d 17fa 3cbe d166 5d3e 655f 48be
00000290: 5379 8bbe 4b1c 46be 9bc3 463e 69f6 33be
000002a0: 2fe3 a8bd b209 9e3d 9188 173e e581 01be
000002b0: 22f8 503e ccb2 953e 49c3 993e 9b05 ce3e
000002c0: de6d 103e eb73 4e3e 3495 c3be e842 ae3e
000002d0: 753c a9be 7c59 81bd 7645 9cbe 7ad6 5a3e
000002e0: 5ad5 fdbd 75a0 d6bd e07d 103e 95b2 cc3e
000002f0: e28e 3a3e 924d 453e cb0c a73e 09e8 62be
00000300: bbfe 76be c088 f7bd 8c41 5d3e c9a2 903d
00000310: 7a28 243d 88e1 a1be f51c 25be ad26 b0be
00000320: 5a97 883e a827 5f3e 5ee6 783c f845 913e
00000330: 9cb2 0a3d 17e6 4f3e 3b84 053e ef3e b43e
00000340: c7b7 3d3e b409 8fbe 69a2 72be 32b7 2d3e
00000350: af58 993e acce 27be 3891 2f3e 42ec 4fbe
00000360: 9e53 a9be 0d55 88be 766f 40be 0736 b13d
00000370: e1d8 0bbe 7876 1f3e 52d2 323d 6939 84be
00000380: 4674 2a3e 6e97 a5be f2f8 783e 9cce ab3e
00000390: 4618 18be bb69 66be 8a43 9c3b c95d 963e
000003a0: 4ec3 c13d 795e bd3e e38d d03e 1f46 21be
000003b0: 31eb b23e fb68 d23d 5d60 8a3e 6f19 9b3e
000003c0: 7785 0cbe 3185 023e 50e8 a3be aed3 90be
000003d0: 1df3 fcbd a8c0 8b3d 3a53 b4be b886 1b3e
000003e0: 94c6 7b3d c4d7 3a3e 3b3c 693e ae41 d03d
000003f0: 1f1d 48be 6e73 7bbe 58da 4ebe 9736 8f3e
0.2508162 0.27291486 0.05164695 0.07998369 -0.17145105 -0.1846707 0.106085315 0.27078363
0.24287935 0.22516541 -0.18092129 -0.3872989 0.022736974 -0.35731947 -0.18636869 0.27344832
-0.2750443 -0.14089024 -0.26065603 -0.20883743 0.08361733 0.12446308 -0.005511414 0.2712399
-0.06955957 0.33385676 -0.21964021 -0.13846624 -0.08055838 -0.06404603 -0.01650884 0.09123043
0.22674361 0.18669285 -0.037272647 0.17368491 -0.022223935 0.11934488 -0.29241836 -0.36664292
0.13894933 -0.041174076 -0.1266263 0.13362582 0.31481457 -0.2161776 -0.03849078 -0.24378413
0.025432823 -0.084059134 0.32479575 -0.11439555 0.23561431 -0.21700752 0.23989438 -0.21564561
-0.25590163 0.26619422 -0.24468681 -0.09775242 0.30881125 -0.12913182 0.20065792 -0.090154186
-0.33914903 -0.09701734 0.4069646 0.23772487 -0.3386923 -0.23021618 0.10449614 -0.24445449
-0.11532439 -0.08303502 -0.08218124 -0.16398793 -0.35582778 0.21585526 0.32831958 0.04484849
-0.32143846 0.39150313 0.12350376 -0.12664382 -0.3825414 -0.058786258 -0.3083174 -0.39564708
0.06614463 -0.28695098 0.31339023 0.12022664 -0.26142883 -0.13675272 -0.23898582 -0.16711931
-0.15196843 0.25407827 -0.09343927 -0.02539004 0.08282953 0.34861353 0.3373303 -0.046426687
-0.39679307 -0.3293451 -0.19203386 -0.16735218 -0.27926755 -0.02786646 0.37806872 -0.27894714
0.37501556 0.0648486 -0.17635942 0.089867644 0.28234872 -0.37818363 0.010033489 0.18218835
0.3313564 0.21804236 -0.017390057 0.11096363 0.27576268 -0.26544032 -0.35991457 0.023938587
0.13234168 -0.31718937 0.29428643 -0.16553219 -0.19925296 -0.21072452 -0.28814673 -0.2034796
-0.033137128 0.3997578 -0.3459729 0.24348593 0.011708561 -0.24164523 0.22303246 0.06902216
0.07168071 -0.06458919 -0.27284616 0.0028174433 0.09650156 0.2211664 0.39257413 -0.22732937
-0.034951225 -0.07229949 0.16268772 0.07769801 0.28254187 -0.3555535 0.11837667 -0.092266195
0.09524032 -0.18454777 0.21621253 -0.1956764 -0.27241 -0.1934673 0.19410555 -0.17574467
-0.08246457 0.07716693 0.1479819 -0.12647207 0.20407155 0.29237974 0.30031803 0.40238652
0.14104411 0.20161407 -0.3819977 0.3403542 -0.33053938 -0.06315896 -0.30521744 0.21370879
-0.12394209 -0.104798235 0.14110518 0.39979997 0.18218568 0.19267872 0.32626948 -0.22158827
-0.2412061 -0.1208663 0.21607035 0.07062299 0.040077664 -0.3161738 -0.16124327 -0.34404507
0.26677972 0.21792471 0.015191643 0.28373694 0.03386174 0.20302616 0.13038723 0.35204265
0.18527137 -0.2793709 -0.23694767 0.16964415 0.29950473 -0.16387433 0.1714524 -0.20304969
-0.33071607 -0.2662739 -0.18792519 0.08652883 -0.13656951 0.15572536 0.04365761 -0.2582505
0.16645917 -0.32342094 0.24313715 0.33556068 -0.1485301 -0.2250127 0.0047687935 0.29368427
0.094610795 0.3698614 0.4073325 -0.15749405 0.34945062 0.1027393 0.27026644 0.30292842
-0.13722788 0.12746121 -0.32013178 -0.282865 -0.12351058 0.06823856 -0.35219747 0.1518811
0.061468676 0.1824637 0.22776882 0.101687774 -0.19542359 -0.24555752 -0.20200479 0.27971336

sequential/dense_2/MatMul;sequential/dense_2/BiasAdd f4 [10]
00000000: be05 79bb 6c3e 9ebc 55c6 29bb 9f2f 7ebc
00000010: 5e90 163c 4c59 5e3b 999b cc3c 941e 88bc
00000020: a303 163d 8a42 d3bb
-0.0037997807 -0.019316874 -0.0025905569 -0.015514283 0.009189693 0.0033927737 0.024976538 -0.016616143
0.036624562 -0.006447141

sequential/lstm/Read_2/ReadVariableOp f4 [256]
00000000: d6d7 843a a6e4 233a 474c adba 4f97 583b
00000010: 04f9 193a b451 2aba 760f c93a 0f97 25b9
00000020: 3c4f 483a a842 a93b 45ca ac3a 64e3 003a
00000030: 13ec bcba fc93 9a37 cf0f 0e3b 5134 643a
00000040: a685 5d3a 24e3 1fb9 be83 493a 96c0 0c3b
00000050: 0ac1 14ba 27f3 393b e34f 213b aa66 3bba
00000060: b08a 513a 1fe4 203b 360d 273a 5bf3 fa39
00000070: e1a5 563a 9e3a a838 d3ec cf39 ecd2 dd39
00000080: 6cf1 f13a 9a69 97b8 773c c83a 0328 be3a
00000090: f244 7db7 8623 7c3b 63e1 ba39 db0f 903a
000000a0: 2dfe bc3b a7f6 613a 3437 5e3b 1244 21ba
000000b0: 3eb2 e638 9a18 b73a 4a53 353b 8d67 8d3a
000000c0: 50b8 db3b 86b3 963a f98d 15ba 9e08 683b
000000d0: f691 b93a 45f5 a53b 2546 99b9 569d e53a
000000e0: d16a 333b a230 0c3b ef64 18ba 28ec 03ba
000000f0: 3ed3 043b 796e f33a b0a4 f63a 2410 17b8
00000100: c42a 803f 9e15 803f acb0 7f3f 78f7 7f3f
00000110: 2016 803f 41d6 7f3f 8c38 803f 5c02 803f
00000120: fc22 803f d6d9 803f 1740 803f bb15 803f
00000130: 0c97 7f3f 4500 803f 504a 803f 1716 803f
00000140: 640f 803f a4e1 7f3f b313 803f 0e68 803f
00000150: 49c2 7f3f d569 803f 50b7 803f 12c5 7f3f
00000160: 8d26 803f 9c4d 803f 4b1a 803f e20e 803f
00000170: 302f 803f f822 803f bf29 803f 3f1e 803f
00000180: e924 803f 57ff 7f3f 2441 803f 7730 803f
00000190: dc06 803f d7c5 803f 2003 803f 8122 803f
000001a0: a96e 803f 5100 803f 213a 803f 8ae0 7f3f
000001b0: 8a01 803f 072b 803f 333d 803f e926 803f
000001c0: ff5b 803f 7e10 803f 48c4 7f3f 0e7a 803f
000001d0: 4516 803f ade3 803f 4e8c 7f3f 1c2c 803f
000001e0: 961e 803f 5457 803f 32cf 7f3f 90e1 7f3f
000001f0: 3b7e 803f d033 803f 682a 803f df0e 803f
00000200: a3e4 44ba 67cc d037 54e5 013a 6e1a b2b9
00000210: 76cc 433a 5cf2 463a 423f 0cba 2de5 8fb7
00000220: 9dec 02ba b2f7 6cba d3fd 3a39 e272 67ba
00000230: 1660 bd3a 74e1 af39 0ab7 8239 91e6 24b9
00000240: ebfa 6839 a86c a4b8 6c95 5e39 0e28 a3b9
00000250: cf8d 46b8 1db6 99b9 dcdf 0b39 5d92 2e3a
00000260: f539 3b3a 0476 3e38 fdad 5139 e546 a33a
00000270: 3c90 153a 8a01 5f35 7120 d63a 6f2d 113a
00000280: 8448 2f3a ea97 4cba 69c8 7239 1555 23b6
00000290: 98b1 c33a 5a2e 9e39 eb28 89b9 ebe6 103b
000002a0: 7ebe 37ba 5281 cf3a 3df0 8ab9 de1d ec38
000002b0: 7abf 2a3a ce2d 3939 eec9 b4ba ce5f 23ba
000002c0: 0a46 8638 7554 33b9 314e 0dba 72a6 4fb9
000002d0: 17be 7839 e998 87b9 cb75 1cbb ed3d 6639
000002e0: a890 38ba 292c d938 e53d 1eba e7ff 473a
000002f0: aa86 a9b9 902e 8dba 9490 ad39 004e 9eb9
00000300: b366 de3a 183f a63a 3df3 433b 8bf2 703b
00000310: 19f3 f539 c589 a638 15d0 f23a 862d 9eb8
00000320: 3a34 513a 0d33 4f3b 93ac 8b3b 5471 953a
00000330: 54bc b4ba 0fbd 1bba d96b 1f3b 3b11 c23a
00000340: 2e7b 013b b807 c639 bce6 8c3a 4a23 ea3b
00000350: 7292 ebb9 925f 363b 1230 463b ec35 66ba
00000360: 65c8 8c3a 7f75 d03b cd90 f83a e4ee da39
00000370: c671 053b 9118 aa39 b5e7 8b3a 5c41 043b
00000380: 7dfd 023b 83db f339 7e04 3c39 7f04 a03a
00000390: 1174 76b9 8c76 2e3b e5de 56b8 eb8f 343a
000003a0: cb86 eb3b 5218 e03a f4a3 843b 55a7 b6b9
000003b0: bc0f d039 1754 933a 471b 313b 880b 8f3a
000003c0: c500 e53b 043c c539 795d 2139 852f 8f3b
000003d0: ae3a 393b a6e3 de3b 3634 483a f856 193b
000003e0: c0d7 f83a d013 413b c76b 8f3a e6bf 91b9
000003f0: 9d0d 073b ec82 0d3b 8d16 d43a 4619 753a
0.0010135125 0.0006252028 -0.0013221585 0.0033049171 0.0005873593 -0.000649716 0.0015339691 -0.000157919
0.00076412014 0.0051654167 0.001318284 0.00049166963 -0.0014413617 1.8427141e-05 0.0021676903 0.00087053055
0.0008450396 -0.00015248038 0.00076871726 0.0021477095 -0.0005674517 0.002837369 0.0024614267 -0.0007148782
0.00079933833 0.0024550033 0.0006372513 0.0004786503 0.000818817 8.0217826e-05 0.00039658564 0.00042309554
0.001845879 -7.219911e-05 0.0015276809 0.0014507774 -1.5096028e-05 0.0038473322 0.0003564461 0.0010991053
0.005767605 0.0008619823 0.0033907415 -0.0006151806 0.00011000455 0.0013969124 0.0027668052 0.0010788307
0.0067053214 0.0011497594 -0.00057050545 0.0035405527 0.001415788 0.005064639 -0.00029234696 0.0017518203
0.00273769 0.0021391292 -0.000581338 -0.00050324434 0.0020267512 0.0018572352 0.0018817391 -3.6016238e-05
1.0013051 1.0006597 0.99878955 0.9998698 1.0006752 0.999363 1.0017257 1.000072
1.0010676 1.0066478 1.0019559 1.0006632 0.99839854 1.0000082 1.0022678 1.0006741
1.0004697 0.99953675 1.0006012 1.0031755 0.9990583 1.0032297 1.0055943 0.9991008
1.0011765 1.0023685 1.0008024 1.0004542 1.00144 1.0010672 1.001274 1.000923
1.0011264 0.9999899 1.0019879 1.001479 1.0002093 1.0060376 1.0000954 1.001053
1.0033771 1.0000097 1.001774 0.99951994 1.000047 1.0013131 1.0018677 1.0011874
1.0028075 1.0005033 0.99908876 1.0037248 1.0006796 1.0069481 0.9982346 1.0013461
1.0009334 1.002665 0.9992553 0.99953556 1.0038522 1.0015812 1.0012941 1.0004538
-0.0007510876 2.4890714e-05 0.0004955132 -0.00033970497 0.0007469127 0.0007589215 -0.00053500023 -1.7153647e-05
-0.00049943646 -0.0009039595 0.00017832899 -0.00088290696 0.0014448192 0.00033546577 0.00024931907 -0.00015726151
0.00022218718 -7.840368e-05 0.00021227234 -0.00031119626 -4.733895e-05 -0.0002931812 0.00013339467 0.0006659383
0.000714212 4.540944e-05 0.00019996609 0.0012457041 0.00057053915 8.3076213e-07 0.0016336573 0.0005538081
0.0006686526 -0.00078046194 0.00023153577 -2.4338417e-06 0.0014930246 0.00030170643 -0.00026161163 0.0022110294
-0.00070092815 0.0015831387 -0.00026500403 0.0001125892 0.00065135176 0.00017660038 -0.001379309 -0.00062322326
6.402664e-05 -0.00017102233 -0.00053903746 -0.00019803064 0.00023721937 -0.00025863133 -0.002387392 0.00021957578
-0.00070405984 0.00010355592 -0.00060364447 0.000762938 -0.00032334524 -0.0010771323 0.0003310485 -0.00030194223
0.0016967863 0.0012683598 0.002989962 0.003676566 0.00046911163 7.9411584e-05 0.0018525148 -7.5425065e-05
0.00079804996 0.0031616122 0.004262516 0.0011401572 -0.0013789036 -0.00059409527 0.0024325757 0.001480616
0.0019757259 0.00037771254 0.0010749917 0.00714532 -0.00044931803 0.002782796 0.0030241054 -0.00087818387
0.0010740875 0.006361663 0.0018964052 0.00041758188 0.0020362004 0.0003244323 0.0010673912 0.0020180559
0.0019987517 0.0004651212 0.0001793075 0.0012208371 -0.00023503626 0.0026620952 -5.1229163e-05 0.00068879005
0.0071876994 0.0017097092 0.004047865 -0.00034838417 0.00039684575 0.0011240271 0.0027024315 0.0010913471
0.006988617 0.00037619483 0.00015388978 0.0043696784 0.0028263736 0.00680204 0.00076371746 0.0023397785
0.0018985197 0.0029461272 0.0010942154 -0.0002779953 0.002060748 0.0021592928 0.0016181037 0.00093497743

sequential/lstm_2/Read_2/ReadVariableOp f4 [256]
00000000: 921e db3b 6ace 333c 0290 5f3c 6fcd b33c
00000010: fe2a 5a3c 5e06 073c d0a5 f33b 25ff 863c
00000020: 59a8 953c 6c62 693c f889 fc3b 4bc3 153b
00000030: 62ef a63c 8124 da3c 7820 bd3c 3cd0 8c3c
00000040: da3b b73b fab4 8a3c c133 543c 3386 433c
00000050: 5af6 253c 91ac af3c 72f0 7d3c b788 4e3c
00000060: b309 673c ec05 673c 5e8c 043c e14b 843c
00000070: 77cf 853c 224d 983c 0357 5e3c bd06 7e3c
00000080: be46 853c 3bf4 693c f6b8 603c 9a6e 3c3c
00000090: 5120 5c3c 2bd5 be3c 6608 883c 82ab 8f3c
000000a0: 4042 0f3c e8be 803c ce69 863b 2fd6 873c
000000b0: dec1 193a ae87 cf3c 6f3b 1a3c c0d2 8f3c
000000c0: 02c0 223c 5ac9 503c 7f8e 353c c133 8e3c
000000d0: 0102 4c3c c889 813c 83b2 8c3c c1bb 323b
000000e0: ab82 2d3c 5e19 443c 34ab 6f3c c5df 473c
000000f0: 30aa bb3c 5f8d 773c b15a cb3b 5c2e 4e3c
00000100: e2e6 803f e26c 823f 0a8e 813f a04a 823f
00000110: 2184 813f 9424 813f 50e2 803f 12dd 813f
00000120: 075e 813f cc18 823f 8dc7 803f 7b24 803f
00000130: 01c5 823f fb3f 833f 8f62 823f c609 823f
00000140: 1b11 813f 93d6 813f 8fe2 803f 3509 813f
00000150: 1b8a 813f 82cb 823f e3f0 823f 51f3 813f
00000160: 20eb 813f a3e6 813f 5840 813f 559e 813f
00000170: 07f9 813f eb82 823f d2d8 813f d872 813f
00000180: ddcf 813f 77f0 813f f507 823f 16c3 803f
00000190: 5b95 813f 38fc 823f c586 813f a357 823f
000001a0: 8664 813f 1804 823f 8ed2 803f cc4a 813f
000001b0: beeb 7f3f 5c91 823f fc08 813f 6163 823f
000001c0: 1e0f 813f 6060 813f 0afe 803f db7b 813f
000001d0: 4393 813f 3008 823f d809 823f 84ac 803f
000001e0: 6c82 813f 4106 813f 81b2 813f a691 813f
000001f0: 329d 823f 1ac5 813f d110 813f 40bb 813f
00000200: 1f6a 1dbb 561d 253b 9e95 ac39 2223 78b9
00000210: 8fa6 c23b 86f3 953a b26a 803b 3ae3 e93a
00000220: f688 b1ba 5ad4 e1b8 dc9d 523b 8165 52bb
00000230: 8ff7 473a f723 bcb9 7233 49bb 3895 57bb
00000240: 4cd2 053a abd2 4e3b 3d93 a5ba df17 2ebb
00000250: dd2b 263b 9bd5 2c3b 0a80 81bb ed1a f13a
00000260: e0fa 50bb f2cb 1a3b 52b1 cebb dfda 00bb
00000270: ecc0 043a df99 20bb 9f16 933a d887 cbb8
00000280: 106a abb8 5f80 72b9 ab95 0dbb 6e6e 29bb
00000290: 61d5 ca3a fa6f c3bb a3a8 d1b6 6cee c4ba
000002a0: 7b49 7dbb 8a0a 2035 5a1d 5a3a 441c 5bbb
000002b0: 95c1 843a fce3 9b3a fd5a 2d3b 9be9 36ba
000002c0: a01c 00bb af97 cb39 d610 50bb e08f 8c3b
000002d0: 8536 92bb f15d 093b 38dc ddb8 fe39 9e3b
000002e0: bd23 76bb 2043 aeba 3cb4 273b 5b8e 1bb9
000002f0: 128d d83b 9497 063b 1060 af3b 51e9 fdba
00000300: afbd 9a3c dd26 d23c 9932 8e3c 6af6 023d
00000310: c8bc 863c 6d65 3f3c e3dc 003c 7a60 e43c
00000320: 46ca ca3c 43b0 933c 6496 373c ea63 f53b
00000330: 7112 9e3c 2d2d fa3c 6dd4 073d 6daa d93c
00000340: 72ce 4e3c 0f49 bb3c d976 8c3c 323a b13c
00000350: 7640 813c 9660 d53c 468f 9b3c e6f0 a53c
00000360: af86 853c 9c42 a53c a4b9 5a3c 162e b33c
00000370: 3dda c33c 25d6 e73c f934 d93c 1ecc 953c
00000380: f518 b13c 8c9a 7f3c 2b4d b83c a161 9a3c
00000390: 5d06 843c 73a1 033d b086 003d 5cea e03c
000003a0: d6cf 4d3c 9a3d 9d3c 4497 bb3c dfd9 9d3c
000003b0: fa58 7b3b 6304 f73c 6a37 553c d3c3 da3c
000003c0: 3f60 693c 7014 853c 77bb a33c e2dd c53c
000003d0: 6a0e 773c b09d b13c 5f5c d23c b6c8 223c
000003e0: ef8d 953c 93e2 913c c97f 943c f354 743c
000003f0: dc68 0b3d 53e0 d13c e08c 7d3c b1d8 8b3c
0.006686994 0.010974506 0.013645174 0.021948544 0.013315914 0.008241264 0.007435538 0.016479084
0.018268751 0.014244657 0.007706877 0.0022852 0.020377818 0.026628735 0.023086771 0.017189138
0.0055918517 0.016932 0.012951792 0.011933851 0.010129536 0.02144459 0.015499221 0.012605838
0.014101434 0.014100533 0.008090107 0.016149463 0.016334279 0.018591467 0.01357055 0.015504536
0.016269084 0.0142794205 0.013715973 0.011500979 0.013435439 0.023295006 0.016605567 0.017537836
0.008743823 0.015716031 0.0041019684 0.016581623 0.0005865375 0.025333252 0.009413584 0.017556548
0.009933474 0.012743318 0.011081337 0.017358663 0.01245165 0.01581277 0.017174965 0.0027272555
0.010590236 0.011968939 0.01462822 0.012199347 0.0229083 0.015109389 0.0062058796 0.012584295
1.007046 1.0189478 1.0121472 1.0179024 1.0118448 1.0089288 1.0069065 1.014559
1.010682 1.0163817 1.0060898 1.0011133 1.0216371 1.02539 1.0186328 1.0159233
1.0083345 1.0143608 1.006914 1.0080935 1.0120271 1.0218356 1.0229763 1.0152379
1.014988 1.014851 1.0097761 1.0126444 1.0154122 1.0196203 1.0144293 1.0113173
1.014156 1.0151509 1.0158678 1.0059536 1.0123705 1.0233221 1.0119253 1.0182995
1.0108802 1.0157499 1.0064256 1.0100951 0.9996909 1.020061 1.0080867 1.0186578
1.0082738 1.0107536 1.0077527 1.0115923 1.0123066 1.0158749 1.0159254 1.0052648
1.0117927 1.0080034 1.01326 1.0122573 1.0204222 1.0138276 1.0083257 1.0135269
-0.0024019552 0.0025194488 0.0003291787 -0.00023664211 0.0059402655 0.0011440373 0.003918969 0.0017844208
-0.0013544846 -0.000107683896 0.0032137549 -0.0032103958 0.00076281367 -0.0003588495 -0.003070083 -0.0032895338
0.0005104884 0.0031558673 -0.0012632381 -0.0026564521 0.0025355734 0.0026372436 -0.003952031 0.0018394865
-0.0031887814 0.0023620096 -0.0063077593 -0.0019661707 0.0005064148 -0.0024505777 0.0011221952 -9.705097e-05
-8.173671e-05 -0.0002312674 -0.0021604102 -0.0025853175 0.0015474969 -0.0059642764 -6.2483173e-06 -0.0015024669
-0.0038648534 5.961998e-07 0.0008320414 -0.0033433596 0.0010128493 0.0011893506 0.0026451938 -0.0006977559
-0.0019548312 0.0003883219 -0.0031748316 0.004289612 -0.0044620656 0.0020960534 -0.0001057912 0.0048286906
-0.0037557923 -0.0013295151 0.0025589606 -0.00014834983 0.0066086138 0.0020537125 0.0053520277 -0.0019371902
0.018889276 0.025653297 0.017358111 0.03197328 0.01644744 0.011681897 0.0078651635 0.027878035
0.024754655 0.018028384 0.0112052895 0.0074887173 0.019295903 0.03053912 0.03316157 0.026570523
0.012622463 0.022861985 0.017146515 0.021634195 0.015777808 0.026047032 0.018989217 0.02025647
0.016299574 0.020173363 0.013349924 0.021872561 0.023907775 0.028300354 0.026514517 0.018285807
0.021618346 0.015600812 0.022497734 0.018845381 0.016116315 0.03213639 0.031378448 0.027455501
0.012561759 0.019194413 0.022899278 0.019268928 0.0038352595 0.030153459 0.0130137 0.026704704
0.014244138 0.016245097 0.019986851 0.024153654 0.01507912 0.021681637 0.025678812 0.0099355485
0.018256156 0.017808234 0.018127339 0.014912832 0.03403555 0.025619661 0.015475482 0.0170711

sequential/lstm_1/Read_2/ReadVariableOp f4 [512]
00000000: 8e3b 3e3c 9f63 953b 982d bc3b 0f1a 3d3c
00000010: 957d 743b 81b9 133c 9a0b 1d3c 95fd 673c
00000020: 2b02 333c 327e 093c edad 533b b428 433c
00000030: 39ea ce3b 7480 c539 c7f6 003c 49cf ab3c
00000040: 80c0 3f3c 79d6 3f3c be3c 4d3c f59f eb3b
00000050: efb6 5c3c 8aa9 143b 3fe8 193c c5ed a03b
00000060: cbce 3a3c dec6 833b 836c 133c bd5e 203c
00000070: 974c 543c 1b8a e23b 20c2 1c3c 4b45 88b8
00000080: 7cbf 2d3c eb9d dc3b 52db 983c da91 183c
00000090: 344c e83b c20c 543c d62b ca3b 498a 333c
000000a0: 19f9 df3b ef01 d73b d573 423c f526 f3ba
000000b0: b917 323c fce5 363c 207b 593b 14c3 29ba
000000c0: 1476 f93b 2139 d93a 6581 283c 478b 9b3b
000000d0: 11b6 b33b 8acf 843c 275c 583b 20e4 d83b
000000e0: 986b 143c 5480 173c 384e 733b de5a 353c
000000f0: c861 4f3c f86b 9c3a f043 3d3c 3068 193c
00000100: b4a7 243c 7ffd 843b 07e9 ac3b 57b9 803c
00000110: e7d1 3d3c 2ea2 a33c 443b ff3b cab0 0a3c
00000120: b1b8 563c 63f2 2f3c 7044 d83b f566 533c
00000130: 244e 613b 22b6 b73b 5734 233c e747 173c
00000140: 621f b73b 5ac7 f1ba 010d 773c 4d02 913b
00000150: 0b1d ed3b ef3b 2c3c 488b 553b 341a 993b
00000160: 781e 673c 15a3 b13a d2f8 2e3c 3a18 853b
00000170: b315 013b a8db 133c c800 af3b 34be 263c
00000180: 85a6 a13b ab9d 5e3b 97e2 643c 0e94 6b3b
00000190: 945f 243c 5f3f ed3b c148 503c d548 253b
000001a0: 23c7 c83b 8b05 1c3c 44db 663c 018d c03b
000001b0: 51a4 073c d4e8 d63a 290c 183c 221e 653c
000001c0: b677 673c 866e 683c 1fb3 693c 322c 443c
000001d0: b361 2e3c 4694 383c b6c3 3a3c 773d 2f3c
000001e0: acd6 c43b 1dba 013c 2b37 ea3b 8bf8 0d3c
000001f0: abc4 cc39 e202 1d3c 8d81 e53b d11c b73b
00000200: 2ebc 803f 01a2 803f a9c3 803f 128c 813f
00000210: 4e6b 803f 5e06 813f e844 813f 7db8 813f
00000220: bc5e 813f a71d 813f 5577 803f 24ad 803f
00000230: f6bf 803f 554f 803f bb13 813f 3550 823f
00000240: a9b2 813f 5493 813f c689 813f 090f 813f
00000250: 09e6 813f 075c 803f 2434 813f 08a2 803f
00000260: 65c7 813f c768 803f 5881 813f ad45 813f
00000270: 665d 813f b9ba 803f 9e63 813f c40a 803f
00000280: 9975 813f a917 813f 2b1e 823f bf28 813f
00000290: 1514 813f d023 813f c2fb 803f fc30 813f
000002a0: 20be 803f 3deb 803f c428 813f 915a 7f3f
000002b0: 405c 813f 639f 813f df7b 803f dbe1 7f3f
000002c0: 39ed 803f c539 803f 3443 813f c68b 803f
000002d0: aebe 803f 04a4 813f 8364 803f adc3 803f
000002e0: 7b42 813f 3e0e 813f f9a5 803f 3186 813f
000002f0: 17c9 813f 9c6c 803f 0471 813f bd42 813f
00000300: ee58 813f f7a4 803f 45a8 803f 1cd6 813f
00000310: a821 813f 778b 813f 0b07 813f 42f0 803f
00000320: 2194 813f d1fe 803f f706 813f 9aeb 803f
00000330: b469 803f b7c6 803f 7467 813f f22a 813f
00000340: 47b4 803f 33ac 7f3f 9b0a 823f 33b8 803f
00000350: 626f 803f 4932 813f 9285 803f 109f 803f
00000360: 01c5 813f 3916 803f 8de6 803f ac8d 803f
00000370: ae1f 803f b51d 813f 8592 803f a675 813f
00000380: aa55 803f 6a7b 803f 8fd6 813f 169b 803f
00000390: f246 813f 7ebe 803f b08d 813f e554 803f
000003a0: c7ba 803f b2e4 803f 57b1 813f f79e 803f
000003b0: d605 813f c42d 803f 5753 813f f38e 813f
000003c0: 99ca 813f cc99 813f 9cb0 813f 2097 813f
000003d0: 3335 813f aa8a 813f 589c 813f c8cf 803f
000003e0: 62e7 803f 0c4b 813f 84c6 803f 18fa 803f
000003f0: 4458 803f 230e 813f dfd6 803f 08d5 803f
0.011610879 0.004558995 0.00574274 0.011541857 0.0037306298 0.009016396 0.009585286 0.01415958
0.01092581 0.008391904 0.0032299713 0.01191156 0.0063145426 0.00037670473 0.007871336 0.020972865
0.01170361 0.011708849 0.012526689 0.007190699 0.013471349 0.002268406 0.009393751 0.004911157
0.011401842 0.0040215096 0.008998039 0.009788212 0.012957714 0.006913436 0.009567767 -6.497892e-05
0.010604735 0.0067326925 0.018659268 0.0093121175 0.0070891622 0.012942495 0.0061697764 0.010958263
0.0068351147 0.00656151 0.011868437 -0.0018551039 0.010869914 0.011163231 0.003318496 -0.0006475907
0.007612953 0.0016572812 0.010284756 0.0047468278 0.0054843505 0.016212244 0.0033013911 0.0066189915
0.0090588555 0.009246904 0.003712548 0.011069028 0.01265759 0.0011934033 0.011551842 0.009363219
0.010049749 0.0040585394 0.0052768025 0.015713377 0.011585689 0.019974794 0.0077890474 0.008465001
0.013105557 0.010738942 0.0065999553 0.012902965 0.003437885 0.0056064287 0.009961209 0.009233451
0.005588458 -0.0018446252 0.015078784 0.004425323 0.007236128 0.010512336 0.0032584239 0.004672313
0.014106385 0.001355263 0.010679441 0.004061726 0.0019696772 0.009024538 0.0053406693 0.010177184
0.0049331808 0.003396849 0.013970039 0.0035946402 0.010032553 0.0072402204 0.012712658 0.0025220413
0.0061272546 0.009522806 0.014090363 0.005876184 0.008278922 0.0016396292 0.009280243 0.013984235
0.014127662 0.014186507 0.014263897 0.011973428 0.0106434105 0.01126582 0.0113992 0.010695807
0.006007036 0.007917908 0.00714769 0.008665214 0.0003905644 0.009583207 0.007003969 0.005588152
1.0057428 1.004944 1.0059711 1.0120871 1.0032747 1.0080068 1.0099154 1.0134426
1.0107036 1.0087174 1.0036417 1.0052838 1.0058582 1.002421 1.0084146 1.0180727
1.0132648 1.0123086 1.012017 1.0082713 1.0148326 1.0028085 1.0094037 1.0049448
1.0138975 1.0031976 1.0117598 1.0099388 1.0106628 1.0056983 1.0108526 1.0003285
1.0114013 1.0085346 1.0165457 1.009056 1.0084254 1.0089054 1.007683 1.0093074
1.0058022 1.0071789 1.0090566 0.9974757 1.0106277 1.0126766 1.0037802 0.99954003
1.0072395 1.001763 1.0098634 1.0042655 1.0058191 1.0128179 1.0030674 1.0059716
1.0098413 1.0082471 1.0050651 1.0119077 1.0139493 1.0033145 1.0112615 1.0098492
1.0105264 1.0050343 1.0051352 1.0143466 1.0088396 1.0120686 1.0080274 1.0073321
1.012333 1.0077764 1.008025 1.00719 1.0032258 1.0060643 1.0109696 1.0091231
1.0055016 0.9987213 1.0159487 1.0056213 1.0033991 1.0093471 1.0040762 1.0048542
1.0138246 1.0006782 1.0070359 1.0043235 1.0009668 1.0087191 1.0044714 1.0114028
1.0026143 1.0037663 1.0143603 1.0047328 1.0099776 1.0058134 1.0121365 1.0025908
1.0057 1.0069792 1.0132245 1.0048512 1.0079906 1.0013967 1.0103558 1.012175
1.0139953 1.012506 1.0132022 1.0124245 1.009436 1.0120442 1.0125837 1.006341
1.0070612 1.0101027 1.0060582 1.0076323 1.0026937 1.0082439 1.0065573 1.0065012

sequential/dense/BiasAdd/ReadVariableOp f4 [64]
00000000: 5d26 0c37 d54e 0bbc 7d2a 9abb 0d70 0ebc
00000010: 0a9e 52bb 82bf 30bb c5fa 703b b54c 2bba
00000020: ab26 ac3b c77c b43b 852d 0abb 9ec3 583b
00000030: ca2b 343b bf36 47bb 013a b03b ce31 d5ba
00000040: 1335 b43b f392 5e3b ca2a a4bb d223 3a3a
00000050: d7ab 6e3b a5cc 4dbc 86d8 1439 db5e e0bb
00000060: 7823 02bc e922 9cba 3067 913b 0c47 53bb
00000070: 8208 45ba 9d4a 473b e508 61b9 d2d3 39bc
00000080: 8b91 51bb 41a5 11bc 640b 34bb 2130 023c
00000090: db4a 48bb 6058 32bb 23da 2bbb 532d 8bbb
000000a0: 01ad c23a a00f 0c3b 295f 5cbc 1e46 103b
000000b0: 7a55 9f3b 83ae 0d3b 21c2 99bb b292 68bb
000000c0: 7cfe bdba 84de 87bb 0eef c73b 09c0 d7bb
000000d0: 5120 35bb b074 9fb9 960f 173c 949f 65bb
000000e0: ec35 e5ba c895 5e3b ac92 963b d432 7c3b
000000f0: 2bea b83a 9b6a 933b 71be d839 d1a5 8f3b
8.353582e-06 -0.008502682 -0.004704772 -0.008693707 -0.0032137656 -0.0026969616 0.0036770564 -0.00065345626
0.005253633 0.0055080387 -0.002108426 0.0033075581 0.002749192 -0.0030397621 0.0053780084 -0.0016265453
0.005499491 0.00339621 -0.0050099837 0.00071006746 0.0036418342 -0.012560998 0.00014195041 -0.006847245
-0.007943027 -0.001191226 0.0044373497 -0.0032238392 -0.00075162214 0.0030409463 -0.00021460986 -0.011342006
-0.003197762 -0.008889497 -0.002747261 0.007946045 -0.0030562195 -0.002721332 -0.002622255 -0.0042473464
0.0014852585 0.0021371618 -0.013450422 0.002201445 0.0048624845 0.002161891 -0.0046923314 -0.0035487828
-0.0014495398 -0.004146399 0.0061014956 -0.0065841717 -0.002763767 -0.00030413782 0.009220025 -0.0035037743
-0.0017487383 0.0033963788 0.0045951214 0.0038482444 0.0014107873 0.0044987923 0.0004134062 0.0043837805

sequential/dense/MatMul1 i1 [64, 64] scale=0.0020521518 zero_point=0
00000000: f8fb b624 180d 6933 9a9d ffbe 6d27 ef99
00000010: 0cad 56b8 ccf0 10df 2b21 a70f 51a8 cfbf
00000020: 15a5 b3d2 13e9 eaf3 19b9 0eed e5bf f8cd
00000030: e42e 07c2 6aeb bfdd fc22 b35c 3e35 98cb
00000040: 4608 3af3 a3e6 aaaa f126 0d28 d8f9 531b
00000050: ad14 9c56 e851 d848 a607 feab 9941 c83f
00000060: 5be4 2c17 b747 97de d237 b508 0432 e0ce
00000070: dbef 69ec 6122 562c 0059 fdf4 aac6 fde8
00000080: 2344 9c6d cc18 b0ea 9cbc 2613 47f4 b320
00000090: 57d4 43d8 d5f2 06a6 43f4 a3c6 0816 07d8
000000a0: b8ec 1004 e1e5 d1f6 3f5d 64a1 2e5d e5ec
000000b0: c24a 614c c73e 4320 4536 3367 2608 d2dd
000000c0: b25d 3305 a52e 35d6 6b05 f5b5 1a2a c3f3
000000d0: a66e 9fa7 b127 3a43 f9ae e2cc b16d 621c
000000e0: e420 a85a 17ef 3cdb 2c2c 9c5a 2de9 d19e
000000f0: d7fe de11 429d 27af 26bd dbab c244 6f07
-0.016417215 -0.010260759 -0.15185924 0.07387747 0.049251646 0.026677974 0.21547595 0.10465974
-0.20931949 -0.20316303 -0.0020521518 -0.13544202 0.22368455 0.08003392 -0.03488658 -0.21137165
0.024625823 -0.1703286 0.17648506 -0.14775494 -0.106711894 -0.03283443 0.03283443 -0.06772101
0.08824253 0.06772101 -0.1826415 0.030782277 0.1662243 -0.18058936 -0.10055544 -0.13338988
0.04309519 -0.18674582 -0.1580157 -0.09439898 0.038990885 -0.04719949 -0.04514734 -0.026677974
0.051303796 -0.14570278 0.028730126 -0.038990885 -0.055408098 -0.13338988 -0.016417215 -0.10465974
-0.057460252 0.09439898 0.014365063 -0.12723342 0.21752809 -0.04309519 -0.13338988 -0.07182531
-0.008208607 0.06977316 -0.1580157 0.18879797 0.12723342 0.108764045 -0.21342379 -0.108764045
0.14365062 0.016417215 0.119024806 -0.026677974 -0.19085012 -0.053355947 -0.17648506 -0.17648506
-0.030782277 0.07798177 0.026677974 0.08208607 -0.08208607 -0.014365063 0.1703286 0.055408098
-0.1703286 0.041043036 -0.20521519 0.17648506 -0.049251646 0.1662243 -0.08208607 0.14775494
-0.18469366 0.014365063 -0.0041043037 -0.1744329 -0.21137165 0.13338988 -0.114920504 0.12928556
0.18674582 -0.057460252 0.09029468 0.04719949 -0.14980708 0.14570278 -0.21547595 -0.06977316
-0.09439898 0.11286835 -0.15391138 0.016417215 0.008208607 0.10260759 -0.06566886 -0.10260759
-0.07592962 -0.03488658 0.21547595 -0.041043036 0.19905873 0.06977316 0.17648506 0.09029468
0.0 0.1826415 -0.0061564557 -0.024625823 -0.17648506 -0.119024806 -0.0061564557 -0.049251646
0.07182531 0.13954632 -0.20521519 0.22368455 -0.106711894 0.049251646 -0.16417214 -0.04514734
-0.20521519 -0.13954632 0.07798177 0.038990885 0.14570278 -0.024625823 -0.1580157 0.06566886
0.1785372 -0.09029468 0.13749418 -0.08208607 -0.08824253 -0.028730126 0.012312911 -0.18469366
0.13749418 -0.024625823 -0.19085012 -0.119024806 0.016417215 0.04514734 0.014365063 -0.08208607
-0.14775494 -0.041043036 0.03283443 0.008208607 -0.06361671 -0.055408098 -0.09645113 -0.020521518
0.12928556 0.19085012 0.20521519 -0.19495443 0.09439898 0.19085012 -0.055408098 -0.041043036
-0.12723342 0.15185924 0.19905873 0.15596354 -0.116972655 0.12723342 0.13749418 0.06566886
0.14159848 0.110816196 0.10465974 0.21137165 0.07798177 0.016417215 -0.09439898 -0.07182531
-0.16006784 0.19085012 0.10465974 0.010260759 -0.18674582 0.09439898 0.108764045 -0.08619038
0.21958025 0.010260759 -0.02257367 -0.15391138 0.053355947 0.08619038 -0.12518126 -0.026677974
-0.18469366 0.2257367 -0.19905873 -0.1826415 -0.16212 0.08003392 0.119024806 0.13749418
-0.014365063 -0.16827644 -0.061564554 -0.106711894 -0.16212 0.22368455 0.20111088 0.057460252
-0.057460252 0.06566886 -0.18058936 0.18469366 0.04719949 -0.03488658 0.12312911 -0.07592962
0.09029468 0.09029468 -0.20521519 0.18469366 0.09234683 -0.04719949 -0.09645113 -0.20111088
-0.08413822 -0.0041043037 -0.06977316 0.03488658 0.13544202 -0.20316303 0.08003392 -0.1662243
0.07798177 -0.13749418 -0.07592962 -0.1744329 -0.12723342 0.13954632 0.22778885 0.014365063

sequential/dense_1/MatMul i1 [32, 64] scale=0.0022855627 zero_point=0
00000000: a14a b169 ca92 1725 66bb c514 f4a8 29a3
00000010: 25c5 5e51 5c1f 1758 b6eb 12d7 92b3 a42e
00000020: c44a 9c1d 23cb 6bd1 f41a e3d6 8b61 03a9
00000030: e06b 4ad2 0c35 d5b1 0ed3 ba03 5bc8 f8b6
00000040: f5ca ae03 b112 cec7 0927 95f5 b1f4 f864
00000050: bf1d 5798 1c95 d7a7 6312 c7b9 e91b cbe8
00000060: 35b1 99b4 baed 1b06 c40a 2263 9c1e b405
00000070: 3400 4b23 b4cf 2e57 6228 04a8 842d 0f65
00000080: c4fe dca5 4208 c4f0 be2f 4d8f dbea d739
00000090: e230 e1be 364d 0149 a5ce afc9 16d4 6a63
000000a0: 9f08 0919 792c 9694 cc7f bd03 565d 41b1
000000b0: 2800 e461 f163 a7e6 c3b5 591c c510 1846
000000c0: 042b b95f 45cc 9771 4920 c05c aa40 fffd
000000d0: e6a0 dcd2 2510 b6fb 605e 1548 3816 cb2c
000000e0: 3c30 62b8 c33d d494 5db6 05f1 b59f 42df
000000f0: f2b4 9c54 fced 9ca0 11c2 d6cd 27bc 43ba
-0.21712846 0.16913164 -0.18055946 0.23998408 -0.12342039 -0.25141189 0.05256794 0.08456582
0.2331274 -0.15770383 -0.13484819 0.045711253 -0.027426753 -0.20112951 0.09370807 -0.21255733
0.08456582 -0.13484819 0.21484289 0.18513058 0.21027176 0.07085244 0.05256794 0.20112951
-0.16913164 -0.047996815 0.041140128 -0.09370807 -0.25141189 -0.17598833 -0.21027176 0.10513588
-0.13713376 0.16913164 -0.22855628 0.06628132 0.07999469 -0.121134825 0.2445552 -0.10742144
-0.027426753 0.05942463 -0.06628132 -0.09599363 -0.26741084 0.22169958 0.0068566883 -0.19884396
-0.073138006 0.2445552 0.16913164 -0.10513588 0.027426753 0.121134825 -0.09827919 -0.18055946
0.031997878 -0.10285032 -0.15998939 0.0068566883 0.2079862 -0.12799151 -0.018284502 -0.16913164
-0.025141189 -0.12342039 -0.18741614 0.0068566883 -0.18055946 0.041140128 -0.11427814 -0.13027707
0.020570064 0.08913694 -0.2445552 -0.025141189 -0.18055946 -0.027426753 -0.018284502 0.22855628
-0.14856158 0.06628132 0.19884396 -0.23769853 0.063995756 -0.2445552 -0.09370807 -0.20341508
0.2262707 0.041140128 -0.13027707 -0.16227496 -0.05256794 0.061710194 -0.121134825 -0.054853506
0.121134825 -0.18055946 -0.23541296 -0.17370276 -0.15998939 -0.04342569 0.061710194 0.013713377
-0.13713376 0.022855626 0.07770913 0.2262707 -0.22855628 0.06856688 -0.17370276 0.011427813
0.11884926 0.0 0.1714172 0.07999469 -0.17370276 -0.111992575 0.10513588 0.19884396
0.22398515 0.091422506 0.009142251 -0.20112951 -0.28340977 0.10285032 0.03428344 0.23084183
-0.13713376 -0.0045711254 -0.082280256 -0.2079862 0.15084714 0.018284502 -0.13713376 -0.036569003
-0.15084714 0.10742144 0.17598833 -0.2582686 -0.08456582 -0.050282378 -0.09370807 0.13027707
-0.06856688 0.10970701 -0.07085244 -0.15084714 0.12342039 0.17598833 0.0022855627 0.16684608
-0.2079862 -0.11427814 -0.18513058 -0.12570594 0.050282378 -0.100564755 0.24226965 0.2262707
-0.22169958 0.018284502 0.020570064 0.05713907 0.2765531 0.100564755 -0.24226965 -0.24684078
-0.11884926 0.29026645 -0.1531327 0.0068566883 0.19655839 0.21255733 0.14856158 -0.18055946
0.091422506 0.0 -0.063995756 0.22169958 -0.03428344 0.2262707 -0.20341508 -0.05942463
-0.13941932 -0.1714172 0.20341508 0.063995756 -0.13484819 0.036569003 0.054853506 0.15998939
0.009142251 0.09827919 -0.16227496 0.21712846 0.15770383 -0.11884926 -0.23998408 0.2582686
0.16684608 0.073138006 -0.14627601 0.21027176 -0.19655839 0.14627601 -0.0022855627 -0.0068566883
-0.05942463 -0.21941403 -0.082280256 -0.10513588 0.08456582 0.036569003 -0.16913164 -0.011427813
0.21941403 0.21484289 0.047996815 0.16456051 0.12799151 0.050282378 -0.121134825 0.100564755
0.13713376 0.10970701 0.22398515 -0.16456051 -0.13941932 0.13941932 -0.100564755 -0.24684078
0.21255733 -0.16913164 0.011427813 -0.03428344 -0.1714172 -0.22169958 0.15084714 -0.07542357
-0.031997878 -0.17370276 -0.22855628 0.19198726 -0.009142251 -0.04342569 -0.22855628 -0.21941403
0.038854565 -0.14170489 -0.09599363 -0.1165637 0.08913694 -0.15541826 0.1531327 -0.15998939

sequential/lstm/Read_2/ReadVariableOp1 f4 [256]
00000000: d6d7 843a a6e4 233a 474c adba 4f97 583b
00000010: 04f9 193a b451 2aba 760f c93a 0f97 25b9
00000020: 3c4f 483a a842 a93b 45ca ac3a 64e3 003a
00000030: 13ec bcba fc93 9a37 cf0f 0e3b 5134 643a
00000040: a685 5d3a 24e3 1fb9 be83 493a 96c0 0c3b
00000050: 0ac1 14ba 27f3 393b e34f 213b aa66 3bba
00000060: b08a 513a 1fe4 203b 360d 273a 5bf3 fa39
00000070: e1a5 563a 9e3a a838 d3ec cf39 ecd2 dd39
00000080: 6cf1 f13a 9a69 97b8 773c c83a 0328 be3a
00000090: f244 7db7 8623 7c3b 63e1 ba39 db0f 903a
000000a0: 2dfe bc3b a7f6 613a 3437 5e3b 1244 21ba
000000b0: 3eb2 e638 9a18 b73a 4a53 353b 8d67 8d3a
000000c0: 50b8 db3b 86b3 963a f98d 15ba 9e08 683b
000000d0: f691 b93a 45f5 a53b 2546 99b9 569d e53a
000000e0: d16a 333b a230 0c3b ef64 18ba 28ec 03ba
000000f0: 3ed3 043b 796e f33a b0a4 f63a 2410 17b8
00000100: c42a 803f 9e15 803f acb0 7f3f 78f7 7f3f
00000110: 2016 803f 41d6 7f3f 8c38 803f 5c02 803f
00000120: fc22 803f d6d9 803f 1740 803f bb15 803f
00000130: 0c97 7f3f 4500 803f 504a 803f 1716 803f
00000140: 640f 803f a4e1 7f3f b313 803f 0e68 803f
00000150: 49c2 7f3f d569 803f 50b7 803f 12c5 7f3f
00000160: 8d26 803f 9c4d 803f 4b1a 803f e20e 803f
00000170: 302f 803f f822 803f bf29 803f 3f1e 803f
00000180: e924 803f 57ff 7f3f 2441 803f 7730 803f
00000190: dc06 803f d7c5 803f 2003 803f 8122 803f
000001a0: a96e 803f 5100 803f 213a 803f 8ae0 7f3f
000001b0: 8a01 803f 072b 803f 333d 803f e926 803f
000001c0: ff5b 803f 7e10 803f 48c4 7f3f 0e7a 803f
000001d0: 4516 803f ade3 803f 4e8c 7f3f 1c2c 803f
000001e0: 961e 803f 5457 803f 32cf 7f3f 90e1 7f3f
000001f0: 3b7e 803f d033 803f 682a 803f df0e 803f
00000200: a3e4 44ba 67cc d037 54e5 013a 6e1a b2b9
00000210: 76cc 433a 5cf2 463a 423f 0cba 2de5 8fb7
00000220: 9dec 02ba b2f7 6cba d3fd 3a39 e272 67ba
00000230: 1660 bd3a 74e1 af39 0ab7 8239 91e6 24b9
00000240: ebfa 6839 a86c a4b8 6c95 5e39 0e28 a3b9
00000250: cf8d 46b8 1db6 99b9 dcdf 0b39 5d92 2e3a
00000260: f539 3b3a 0476 3e38 fdad 5139 e546 a33a
00000270: 3c90 153a 8a01 5f35 7120 d63a 6f2d 113a
00000280: 8448 2f3a ea97 4cba 69c8 7239 1555 23b6
00000290: 98b1 c33a 5a2e 9e39 eb28 89b9 ebe6 103b
000002a0: 7ebe 37ba 5281 cf3a 3df0 8ab9 de1d ec38
000002b0: 7abf 2a3a ce2d 3939 eec9 b4ba ce5f 23ba
000002c0: 0a46 8638 7554 33b9 314e 0dba 72a6 4fb9
000002d0: 17be 7839 e998 87b9 cb75 1cbb ed3d 6639
000002e0: a890 38ba 292c d938 e53d 1eba e7ff 473a
000002f0: aa86 a9b9 902e 8dba 9490 ad39 004e 9eb9
00000300: b366 de3a 183f a63a 3df3 433b 8bf2 703b
00000310: 19f3 f539 c589 a638 15d0 f23a 862d 9eb8
00000320: 3a34 513a 0d33 4f3b 93ac 8b3b 5471 953a
00000330: 54bc b4ba 0fbd 1bba d96b 1f3b 3b11 c23a
00000340: 2e7b 013b b807 c639 bce6 8c3a 4a23 ea3b
00000350: 7292 ebb9 925f 363b 1230 463b ec35 66ba
00000360: 65c8 8c3a 7f75 d03b cd90 f83a e4ee da39
00000370: c671 053b 9118 aa39 b5e7 8b3a 5c41 043b
00000380: 7dfd 023b 83db f339 7e04 3c39 7f04 a03a
00000390: 1174 76b9 8c76 2e3b e5de 56b8 eb8f 343a
000003a0: cb86 eb3b 5218 e03a f4a3 843b 55a7 b6b9
000003b0: bc0f d039 1754 933a 471b 313b 880b 8f3a
000003c0: c500 e53b 043c c539 795d 2139 852f 8f3b
000003d0: ae3a 393b a6e3 de3b 3634 483a f856 193b
000003e0: c0d7 f83a d013 413b c76b 8f3a e6bf 91b9
000003f0: 9d0d 073b ec82 0d3b 8d16 d43a 4619 753a
0.0010135125 0.0006252028 -0.0013221585 0.0033049171 0.0005873593 -0.000649716 0.0015339691 -0.000157919
0.00076412014 0.0051654167 0.001318284 0.00049166963 -0.0014413617 1.8427141e-05 0.0021676903 0.00087053055
0.0008450396 -0.00015248038 0.00076871726 0.0021477095 -0.0005674517 0.002837369 0.0024614267 -0.0007148782
0.00079933833 0.0024550033 0.0006372513 0.0004786503 0.000818817 8.0217826e-05 0.00039658564 0.00042309554
0.001845879 -7.219911e-05 0.0015276809 0.0014507774 -1.5096028e-05 0.0038473322 0.0003564461 0.0010991053
0.005767605 0.0008619823 0.0033907415 -0.0006151806 0.00011000455 0.0013969124 0.0027668052 0.0010788307
0.0067053214 0.0011497594 -0.00057050545 0.0035405527 0.001415788 0.005064639 -0.00029234696 0.0017518203
0.00273769 0.0021391292 -0.000581338 -0.00050324434 0.0020267512 0.0018572352 0.0018817391 -3.6016238e-05
1.0013051 1.0006597 0.99878955 0.9998698 1.0006752 0.999363 1.0017257 1.000072
1.0010676 1.0066478 1.0019559 1.0006632 0.99839854 1.0000082 1.0022678 1.0006741
1.0004697 0.99953675 1.0006012 1.0031755 0.9990583 1.0032297 1.0055943 0.9991008
1.0011765 1.0023685 1.0008024 1.0004542 1.00144 1.0010672 1.001274 1.000923
1.0011264 0.9999899 1.0019879 1.001479 1.0002093 1.0060376 1.0000954 1.001053
1.0033771 1.0000097 1.001774 0.99951994 1.000047 1.0013131 1.0018677 1.0011874
1.0028075 1.0005033 0.99908876 1.0037248 1.0006796 1.0069481 0.9982346 1.0013461
1.0009334 1.002665 0.9992553 0.99953556 1.0038522 1.0015812 1.0012941 1.0004538
-0.0007510876 2.4890714e-05 0.0004955132 -0.00033970497 0.0007469127 0.0007589215 -0.00053500023 -1.7153647e-05
-0.00049943646 -0.0009039595 0.00017832899 -0.00088290696 0.0014448192 0.00033546577 0.00024931907 -0.00015726151
0.00022218718 -7.840368e-05 0.00021227234 -0.00031119626 -4.733895e-05 -0.0002931812 0.00013339467 0.0006659383
0.000714212 4.540944e-05 0.00019996609 0.0012457041 0.00057053915 8.3076213e-07 0.0016336573 0.0005538081
0.0006686526 -0.00078046194 0.00023153577 -2.4338417e-06 0.0014930246 0.00030170643 -0.00026161163 0.0022110294
-0.00070092815 0.0015831387 -0.00026500403 0.0001125892 0.00065135176 0.00017660038 -0.001379309 -0.00062322326
6.402664e-05 -0.00017102233 -0.00053903746 -0.00019803064 0.00023721937 -0.00025863133 -0.002387392 0.00021957578
-0.00070405984 0.00010355592 -0.00060364447 0.000762938 -0.00032334524 -0.0010771323 0.0003310485 -0.00030194223
0.0016967863 0.0012683598 0.002989962 0.003676566 0.00046911163 7.9411584e-05 0.0018525148 -7.5425065e-05
0.00079804996 0.0031616122 0.004262516 0.0011401572 -0.0013789036 -0.00059409527 0.0024325757 0.001480616
0.0019757259 0.00037771254 0.0010749917 0.00714532 -0.00044931803 0.002782796 0.0030241054 -0.00087818387
0.0010740875 0.006361663 0.0018964052 0.00041758188 0.0020362004 0.0003244323 0.0010673912 0.0020180559
0.0019987517 0.0004651212 0.0001793075 0.0012208371 -0.00023503626 0.0026620952 -5.1229163e-05 0.00068879005
0.0071876994 0.0017097092 0.004047865 -0.00034838417 0.00039684575 0.0011240271 0.0027024315 0.0010913471
0.006988617 0.00037619483 0.00015388978 0.0043696784 0.0028263736 0.00680204 0.00076371746 0.0023397785
0.0018985197 0.0029461272 0.0010942154 -0.0002779953 0.002060748 0.0021592928 0.0016181037 0.00093497743

while/MatMul_1 i1 [256, 64] scale=0.0020720693 zero_point=0
00000000: d1e8 0a0b f708 23bf ea11 ec15 e901 3709
00000010: f72c 1d13 e118 1811 1c0d 1ded feec 2731
00000020: 0d06 090c e216 25e4 bcd7 07e2 002a fcca
00000030: f715 060a 060f 111a fce5 01da f21c 5423
00000040: e728 f20d 1efb 1b35 ddb6 1eb1 29ef e9d1
00000050: e52d 1621 d328 f302 18f0 f5f6 efcd 02e6
00000060: 31d9 3618 32be f2e7 1fdb ee20 fa11 32bb
00000070: e8ee fb39 e506 ece5 1316 0016 e32b f20c
00000080: fd2e e93a e1c0 2905 e7f6 f103 1905 e60a
00000090: 2f08 0d21 27ef ecd8 1532 dae3 0e1c bf00
000000a0: 430d f005 13e3 f70a f929 e6e7 0df8 f3e6
000000b0: 22f5 0fe8 f2f2 defd 011e d9d0 2ae0 0a2e
000000c0: ebd9 01fc 0614 09f6 f002 2a02 18fa 45ef
000000d0: 05e5 e70e e101 110a 141c 3034 fa1f f7e8
000000e0: 02ff 15ee 02e1 ffff 212e e805 faf9 e80b
000000f0: faf5 33d2 ea30 e708 12e6 1df5 17dd edf6
-0.09738726 -0.049729664 0.020720694 0.022792762 -0.018648624 0.016576555 0.072522424 -0.1346845
-0.045585524 0.03522518 -0.04144139 0.043513454 -0.047657594 0.0020720693 0.11396381 0.018648624
-0.018648624 0.09117105 0.06009001 0.03936932 -0.06423415 0.049729664 0.049729664 0.03522518
0.05801794 0.026936902 0.06009001 -0.03936932 -0.0041441387 -0.04144139 0.0808107 0.101531394
0.026936902 0.012432416 0.018648624 0.024864832 -0.06216208 0.045585524 0.076666564 -0.05801794
-0.14090072 -0.08495484 0.014504485 -0.06216208 0.0 0.08702691 -0.008288277 -0.11189175
-0.018648624 0.043513454 0.012432416 0.020720694 0.012432416 0.03108104 0.03522518 0.053873803
-0.008288277 -0.055945873 0.0020720693 -0.07873864 -0.02900897 0.05801794 0.17405382 0.072522424
-0.051801734 0.08288278 -0.02900897 0.026936902 0.06216208 -0.010360347 0.055945873 0.10981967
-0.072522424 -0.15333313 0.06216208 -0.16369347 0.08495484 -0.03522518 -0.047657594 -0.09738726
-0.055945873 0.09324312 0.045585524 0.068378285 -0.09324312 0.08288278 -0.026936902 0.0041441387
0.049729664 -0.03315311 -0.022792762 -0.020720694 -0.03522518 -0.10567553 0.0041441387 -0.053873803
0.101531394 -0.0808107 0.11189175 0.049729664 0.10360347 -0.13675657 -0.02900897 -0.051801734
0.06423415 -0.076666564 -0.03729725 0.06630622 -0.012432416 0.03522518 0.10360347 -0.14297278
-0.049729664 -0.03729725 -0.010360347 0.11810795 -0.055945873 0.012432416 -0.04144139 -0.055945873
0.03936932 0.045585524 0.0 0.045585524 -0.06009001 0.08909898 -0.02900897 0.024864832
-0.006216208 0.09531519 -0.047657594 0.12018002 -0.06423415 -0.13261244 0.08495484 0.010360347
-0.051801734 -0.020720694 -0.03108104 0.006216208 0.051801734 0.010360347 -0.053873803 0.020720694
0.09738726 0.016576555 0.026936902 0.068378285 0.0808107 -0.03522518 -0.04144139 -0.08288278
0.043513454 0.10360347 -0.07873864 -0.06009001 0.02900897 0.05801794 -0.1346845 0.0
0.13882865 0.026936902 -0.03315311 0.010360347 0.03936932 -0.06009001 -0.018648624 0.020720694
-0.014504485 0.08495484 -0.053873803 -0.051801734 0.026936902 -0.016576555 -0.026936902 -0.053873803
0.07045036 -0.022792762 0.03108104 -0.049729664 -0.02900897 -0.02900897 -0.07045036 -0.006216208
0.0020720693 0.06216208 -0.0808107 -0.09945933 0.08702691 -0.06630622 0.020720694 0.09531519
-0.043513454 -0.0808107 0.0020720693 -0.008288277 0.012432416 0.04144139 0.018648624 -0.020720694
-0.03315311 0.0041441387 0.08702691 0.0041441387 0.049729664 -0.012432416 0.14297278 -0.03522518
0.010360347 -0.055945873 -0.051801734 0.02900897 -0.06423415 0.0020720693 0.03522518 0.020720694
0.04144139 0.05801794 0.09945933 0.10774761 -0.012432416 0.06423415 -0.018648624 -0.049729664
0.0041441387 -0.0020720693 0.043513454 -0.03729725 0.0041441387 -0.06423415 -0.0020720693 -0.0020720693
0.068378285 0.09531519 -0.049729664 0.010360347 -0.012432416 -0.014504485 -0.049729664 0.022792762
-0.012432416 -0.022792762 0.10567553 -0.09531519 -0.045585524 0.09945933 -0.051801734 0.016576555
0.03729725 -0.053873803 0.06009001 -0.022792762 0.047657594 -0.072522424 -0.03936932 -0.020720694

while/MatMul i1 [256, 1623] scale=0.0006853935 zero_point=0
00000000: 4d0c 40e2 d9b2 2cf0 15be 0234 c2b1 d9c7
00000010: bd39 14aa cf2b 30be def5 c70a 27da b3aa
00000020: 2842 503e e922 bfbc 3142 fb3b 39c3 fe17
00000030: 301e ea30 1ece 0ab8 3113 cd43 bc36 00df
00000040: 4adb d516 dbd0 3edc 3c0f df24 0cbf c034
00000050: 30b3 50e9 badd 2752 c19b e249 3232 421d
00000060: 34c7 4019 3d13 c0f2 002f 4b44 c9bc 19e2
00000070: 40a7 fe1b 0408 2640 bfd7 4dfa cdc8 d31e
00000080: 24b6 0ae8 2d0a 0121 d8b3 bf3b 1033 19f5
00000090: 0800 e440 ba03 f3b4 4c36 3ec3 1120 3903
000000a0: 2748 34f9 3503 1ebc ecbb 01cd 4cd0 1c4e
000000b0: 3d50 d84d f8e9 d61d 2720 bbcc e7b3 e933
000000c0: e1cc eed7 e11e 3811 31fc ea4b e5ee 1ed3
000000d0: ecd8 f8c3 38f8 e7c8 cce1 52c9 35fe ba0a
000000e0: 09ca e9d8 0b31 13b8 ec1f 264a d926 0db5
000000f0: b4c2 b33d 1bde cf38 0d2e dfb9 5301 fbc9
0.0527753 0.008224722 0.043865185 -0.020561805 -0.026730347 -0.053460695 0.030157315 -0.010966296
0.0143932635 -0.045235973 0.001370787 0.035640463 -0.042494398 -0.05414609 -0.026730347 -0.039067432
-0.045921367 0.039067432 0.013707871 -0.05894384 -0.03358428 0.02947192 0.032898888 -0.045235973
-0.02330338 -0.0075393287 -0.039067432 0.0068539353 0.026730347 -0.026044954 -0.0527753 -0.05894384
0.027415741 0.045235973 0.054831482 0.042494398 -0.01576405 0.02330338 -0.04455058 -0.04660676
0.03358428 0.045235973 -0.0034269677 0.040438216 0.039067432 -0.041809004 -0.001370787 0.01576405
0.032898888 0.020561805 -0.015078657 0.032898888 0.020561805 -0.034269676 0.0068539353 -0.049348332
0.03358428 0.013022477 -0.03495507 0.045921367 -0.04660676 0.03701125 0.0 -0.022617986
0.05071912 -0.02535956 -0.02947192 0.015078657 -0.02535956 -0.032898888 0.042494398 -0.024674166
0.04112361 0.0102809025 -0.022617986 0.024674166 0.008224722 -0.04455058 -0.043865185 0.035640463
0.032898888 -0.0527753 0.054831482 -0.01576405 -0.047977548 -0.023988774 0.026730347 0.05620227
-0.04317979 -0.069224745 -0.020561805 0.050033726 0.034269676 0.034269676 0.045235973 0.019876411
0.035640463 -0.039067432 0.043865185 0.017134838 0.041809004 0.013022477 -0.043865185 -0.00959551
0.0 0.032213494 0.051404513 0.04660676 -0.037696645 -0.04660676 0.017134838 -0.020561805
0.043865185 -0.061000023 -0.001370787 0.018505625 0.002741574 0.005483148 0.026044954 0.043865185
-0.04455058 -0.028101135 0.0527753 -0.004112361 -0.03495507 -0.03838204 -0.030842708 0.020561805
0.024674166 -0.05071912 0.0068539353 -0.016449444 0.030842708 0.0068539353 0.0006853935 0.022617986
-0.027415741 -0.0527753 -0.04455058 0.040438216 0.010966296 0.03495507 0.017134838 -0.0075393287
0.005483148 0.0 -0.01919102 0.043865185 -0.047977548 0.0020561805 -0.008910116 -0.052089907
0.052089907 0.03701125 0.042494398 -0.041809004 0.01165169 0.021932593 0.039067432 0.0020561805
0.026730347 0.049348332 0.035640463 -0.004797755 0.036325857 0.0020561805 0.020561805 -0.04660676
-0.013707871 -0.047292154 0.0006853935 -0.03495507 0.052089907 -0.032898888 0.01919102 0.053460695
0.041809004 0.054831482 -0.027415741 0.0527753 -0.005483148 -0.01576405 -0.028786527 0.019876411
0.026730347 0.021932593 -0.047292154 -0.035640463 -0.017134838 -0.0527753 -0.01576405 0.03495507
-0.021247199 -0.035640463 -0.012337083 -0.028101135 -0.021247199 0.020561805 0.03838204 0.01165169
0.03358428 -0.002741574 -0.015078657 0.051404513 -0.018505625 -0.012337083 0.020561805 -0.030842708
-0.013707871 -0.027415741 -0.005483148 -0.041809004 0.03838204 -0.005483148 -0.017134838 -0.03838204
-0.035640463 -0.021247199 0.05620227 -0.037696645 0.036325857 -0.001370787 -0.047977548 0.0068539353
0.0061685415 -0.03701125 -0.01576405 -0.027415741 0.0075393287 0.03358428 0.013022477 -0.049348332
-0.013707871 0.021247199 0.026044954 0.05071912 -0.026730347 0.026044954 0.008910116 -0.051404513
-0.052089907 -0.042494398 -0.0527753 0.041809004 0.018505625 -0.02330338 -0.03358428 0.03838204
0.008910116 0.0315281 -0.022617986 -0.04866294 0.056887664 0.0006853935 -0.0034269677 -0.037696645
